test-apps/Jetson_TRT_CNNs/LeNet5_pytorch.onnx (onnx, 248043 bytes, 10 tensors)

fc.weight f4 [120, 400]
00000000: cbd2 9fbd 5f4a e6bd 66db d7bd 9667 34be
00000010: e9b0 8bbc ad6d 0bbe 58af abbd e70b d8bd
00000020: 66d6 9ebd a04c 22bc db32 2abe 612b 04be
00000030: bb6d e9bd 3947 13bd 9328 b9bd 1695 23be
00000040: 0536 5dbb d092 04bc 616e 01be 3699 4c3d
00000050: 46f2 00bd 8010 9e3c 99ca 7a3d 32e1 113e
00000060: 6a32 ef3d 903e f3bd d212 bbbd a98a cd3d
00000070: 7e4e 483d 5970 653d 08a5 d4bd 1858 3abd
00000080: 1618 cebc 68a3 d53d 68ac 3b3e 22c3 ffbd
00000090: e467 fdbd 09d1 60bb 0c1e 87bc 5b33 13bd
000000a0: 3441 bcbd 928f 0bbe 4867 1fbe 8351 6abe
000000b0: e381 87be 6637 fdbb bdc9 77bd 252e 8dbd
000000c0: 38fe 9eba 10d5 36bd 927b 12be 3114 b7bc
000000d0: e7e1 19bd 78f4 f03d ad86 193e a9fa 24bc
000000e0: 891c b33d f7e7 fcbb f263 08bc 2733 1dbd
000000f0: 0143 963d ccda 56bd 6917 a1bd 3150 03be
00000100: 5f7e d7bd cbf3 b23d dbf8 e93d 2974 6d3d
00000110: 7434 11be de4b 1fbd b4a2 873d 1681 a53b
00000120: c888 debc 53fa 06bd c243 d2bd 3a73 c4bd
00000130: 4886 8cbd d17f 08be e137 0abd 2147 7a3d
00000140: 7593 a2bd ff20 d7bd 1bce c7bc c876 0c3e
00000150: 7a5c b33d 7b97 57be 6ecb 103d dcf0 1e3e
00000160: 5645 e7bc 29e6 dabd aed9 3cbd 1a1e e53c
00000170: fbba d2bd 495f 21bd bde8 3e3d 01aa 41bd
00000180: e3a2 50bd 81fd b53d b36a b93d 27d1 763d
00000190: 3215 5cbd 3b55 a1bd fa1d e1bc b165 8a3d
000001a0: c2ba 5b3e f854 5a3d a6a3 dbbc b4ec 273d
000001b0: b100 d73d 5752 c43d 60d7 07bd cace 84bc
000001c0: ea53 07be 2bb4 9dbd 602c 3fbe 6cfb ac3d
000001d0: 92b7 6b3c 070d 3fbd 700c 85bd 616f 6ebe
000001e0: cc20 c43d 1d17 ee3d b281 a33d 9d95 813d
000001f0: a79d d4bd 274b 85bd c183 42bd bebc be3d
00000200: d397 093d ecfb 793e d844 313c 72c2 3c3e
00000210: ca2f 7a3e 1a22 133e 187e 2d3e c38f f63c
00000220: 755b c03d 45f8 283d 4336 c1bd 79fa 8cbe
00000230: 20e7 dbbc f990 c9bc 8d03 413d 2227 8f3c
00000240: 21f5 f7bd 9118 a03c b932 a93d bb82 b63d
00000250: ca8d eabc 415b 21be d9ba 15be f6c8 f93d
00000260: ac34 8e3d 5e58 a73c e7ea 413c 303e 7f3d
00000270: 6341 b33d f4e6 d63d 867d 323e 54f2 603e
00000280: f9b7 983c 2b2b b73d 099b dc3c a013 74bd
00000290: 2630 f2bc d20d 1d3e 31d0 fe3d 6afb 8f3d
000002a0: 15d0 a5bd f05f 28be 9a3e df3c 55e0 913d
000002b0: 6115 c43c 2c29 aabd e979 a0be 9c29 51be
000002c0: f188 59bd 2f8b ba3d 3afc 713c 9e2d cdbd
000002d0: 7407 ddbd 7bdb e23c e4f2 b53c 7074 77bd
000002e0: 7f39 833b f1e0 3c3d 58ac e63d f45e b13d
000002f0: bb65 a83d 92b7 c03d 38bd dd3d 782e ec3c
00000300: 6e87 c13c 1cfa b23d 5c1d f83d 2881 86bd
00000310: c40a 803d aa99 203d 1bf4 763c d976 c9bd
00000320: 23cd 0fbe 29fd 013c 9802 23bd c6f2 8f3b
00000330: 2543 d03c 741b 083c 4046 423c cf0d 3fbd
00000340: cc4a 1fbe dfb9 afbd 73c5 1bbc 9004 133e
00000350: b6af 7fbd b42e abbd 3099 debd 9f8e 823c
00000360: d4d2 cd3d abfd 813d 076b c53d 4a74 853d
00000370: 9246 d9bd d8e7 bebc ce09 dabb 99a0 c93d
00000380: 232b 2f3d f1c2 5fbd e30a 9bbd 72db 42bd
00000390: 299f 4e3d 2937 1c3d d255 fbbc b0fb 093b
000003a0: ed0c 323d 05ca 3bbc 0d91 fc3d a84e 48bd
000003b0: 9d10 a93c a575 1fba 1e8c 72bd 3ee4 1d3e
000003c0: 24df 473e 783b 403e fe45 433e ef44 2d3c
000003d0: a403 13bd 0abc e2bd 569c 32bd 93da 143d
000003e0: 67b1 483b 9d71 88be 191c 21be 1fcb e7bc
000003f0: 107a e6bd 13e7 463d 7950 eb3b c89c 233e
-0.078038774 -0.11244654 -0.10539894 -0.1761764 -0.01705213 -0.13616057 -0.083830535 -0.10549145
-0.07755737 -0.009905964 -0.16620962 -0.12907173 -0.113978826 -0.035956595 -0.09040942 -0.1597484
-0.0033754122 -0.008091643 -0.12639762 0.0499508 -0.03148105 0.019294977 0.06122837 0.14246061
0.116795376 -0.11877167 -0.09134449 0.10036213 0.04890298 0.056015346 -0.1038304 -0.04549417
-0.02515797 0.10431558 0.18327487 -0.124883905 -0.12373331 -0.0034304282 -0.01649382 -0.03593765
-0.09192124 -0.13628986 -0.15566742 -0.22882657 -0.26466283 -0.0077275513 -0.060495127 -0.06893567
-0.0012130206 -0.044636786 -0.14304951 -0.022348495 -0.037568953 0.11765379 0.14992781 -0.010069528
0.08745677 -0.007718082 -0.00832461 -0.03837886 0.07336999 -0.052454755 -0.07865793 -0.1282356
-0.1052215 0.08737906 0.114244185 0.057972107 -0.14180166 -0.038890712 0.0662283 0.0050507886
-0.027164832 -0.03295357 -0.1026683 -0.0959229 -0.068615496 -0.13330008 -0.033744697 0.06110299
-0.079382814 -0.105043404 -0.024390271 0.13717186 0.08757873 -0.21053879 0.035350256 0.15521568
-0.028231304 -0.10688431 -0.046106033 0.027968455 -0.1028957 -0.03939751 0.046608675 -0.04728127
-0.05093659 0.08886243 0.090535544 0.060258057 -0.05373115 -0.078775845 -0.027480114 0.06757677
0.21457961 0.05330369 -0.026811432 0.040997222 0.10498179 0.095860176 -0.033164382 -0.016211886
-0.13215604 -0.0770038 -0.18669271 0.084463924 0.014387028 -0.046643283 -0.06496513 -0.23284675
0.09576568 0.11625502 0.07983722 0.063273646 -0.10381632 -0.06508475 -0.04748893 0.093133435
0.033592056 0.24412507 0.010819636 0.1843355 0.24432293 0.14368477 0.16942632 0.030097848
0.09392444 0.041252393 -0.09434178 -0.27534845 -0.026843607 -0.024605261 0.047122527 0.017474715
-0.121073015 0.019542964 0.08261628 0.089116536 -0.028632063 -0.15757467 -0.14622058 0.121965334
0.0694364 0.020427879 0.01183579 0.062315166 0.08752706 0.104932696 0.17430696 0.21967441
0.018642412 0.089437805 0.026929395 -0.05958903 -0.029563975 0.15337303 0.12442053 0.07030375
-0.08096329 -0.16442847 0.02725153 0.07122866 0.023935976 -0.08308634 -0.3134301 -0.20426029
-0.053109113 0.091085784 0.014769608 -0.100184664 -0.10792437 0.027692547 0.022210546 -0.060413778
0.004004657 0.04611296 0.11263341 0.08660689 0.082225285 0.09410013 0.10827106 0.028830752
0.023624148 0.08739111 0.12114975 -0.06567603 0.062520534 0.039209045 0.015072848 -0.098371215
-0.14043097 0.007933893 -0.039797395 0.0043929545 0.025422642 0.008307327 0.011857569 -0.04664403
-0.15555876 -0.08580374 -0.009507525 0.14357209 -0.06242343 -0.08358517 -0.10869062 0.015937148
0.10049978 0.063472115 0.096395545 0.06516321 -0.10609163 -0.023303911 -0.006654001 0.09845085
0.042765748 -0.05462927 -0.07570436 -0.04757256 0.050444756 0.038138542 -0.03068057 0.0021054558
0.04346936 -0.011461739 0.12332354 -0.048903137 0.020637805 -0.0006082899 -0.059215657 0.15419099
0.19518715 0.18772686 0.19069669 0.010575517 -0.035892144 -0.11071022 -0.043606125 0.03634126
0.0030623318 -0.2664918 -0.15733375 -0.028295098 -0.1125375 0.048560213 0.007181224 0.15977776

fc.bias f4 [120]
00000000: 45c3 98bd 9b6f f13c 2e1c 00bd 354d 183d
00000010: 7c97 503d c6bc e23c 30d7 9eba 7546 503d
00000020: 7d64 9e3c ce1e 74bc 922a 8a3c 8197 8b3c
00000030: 09b0 46bd 1129 41bd 2d05 dbbb 08a1 92bc
00000040: 41cf 9b3b 1e87 18bd 73fe 59bc 986f 133d
00000050: 6a44 6b3d df90 eb3c 305b b93c fc26 c93c
00000060: 68cd 533d 19d6 09bd c407 93bd cd07 993c
00000070: c527 523c 756c febc e9ca 15bd c2e6 b03b
00000080: f805 a23d 77b8 40bd 612d 21bd 6ef5 0bbd
00000090: f5a5 1ebc c7ef e43b a210 65bd cd3a f7bc
000000a0: d5f0 74bd 954b 1abd 53c8 9d3c c069 d33c
000000b0: 915d 863d dd79 c2bc efa3 fd3c c6fb 163d
000000c0: cf42 18bc f466 74bd 39ff 873a a928 86bd
000000d0: 26c1 4cbd 134c cabc 561d 6bbd d717 1bbd
000000e0: 4593 8bbd 8eff 103c daa5 06bd 3388 0c3c
000000f0: 3511 213d aa42 873d 2d0e d6bc d9ab 53bd
00000100: c67c 1b3c be49 a43c 96cb a7bc 4f50 1fbd
00000110: 3c20 bebc 2941 d13c 6230 a23b a041 5c3d
00000120: cb31 823c 0c62 43bc c9fd cdbc 4545 d0bc
00000130: d280 1b3c 83ea 8fbc f3b6 0bbd 591e d2bc
00000140: 3173 a6bd 0e44 18bd 2b4b 05bd aa36 4bbc
00000150: c5a5 13bc 1b25 84bd 33a9 96bc c5af 2f3d
00000160: 6562 ac3c 0561 5ebd ebc8 823d 8414 ecbc
00000170: bbdd 80bc cf03 9c3d 59a0 0b3d 12ca 623b
00000180: bda6 703c f3fe 773d 41b7 8c3b 26a4 8abc
00000190: 24da 5f3d 4306 2ebd af1b 633d 60a6 4c3d
000001a0: f5ae 453d bc82 833c 1efc 32bd b255 f53a
000001b0: c05c 953d 9c7d 4e3d ebcf 84bd c530 adbc
000001c0: 928d 6bbd 7d63 7bba 3731 303d a439 4b3d
000001d0: 365a e93d 2f4d c3bd d75e c03c 9154 14bc
-0.0745912 0.029472163 -0.031276874 0.037183005 0.050925717 0.027677905 -0.0012118574 0.050848443
0.019335026 -0.014899923 0.016866002 0.017040016 -0.048507724 -0.047158305 -0.0066839666 -0.017899051
0.004754931 -0.037238233 -0.013305294 0.035995096 0.05743829 0.028755603 0.02262649 0.024554722
0.051709563 -0.033651445 -0.071792156 0.018680478 0.012826865 -0.031057576 -0.036570463 0.005398602
0.07911295 -0.04705092 -0.039349917 -0.034169607 -0.009683122 0.0069865915 -0.055924065 -0.030179406
-0.059799988 -0.037669737 0.019260561 0.025807261 0.06560815 -0.02373975 0.030961959 0.036861204
-0.009293272 -0.059668496 0.0010375745 -0.06550724 -0.04998889 -0.024694478 -0.057401024 -0.037864532
-0.06815199 0.0088499915 -0.032873012 0.008577394 0.03932305 0.06604512 -0.026129806 -0.05167756
0.0094901975 0.020054694 -0.02048282 -0.038894948 -0.02320873 0.025543766 0.0049496153 0.053773522
0.015892884 -0.011925232 -0.025145428 -0.025423655 0.009491162 -0.017567879 -0.03411002 -0.025649237
-0.0812744 -0.037174277 -0.03254239 -0.01240317 -0.0090116905 -0.0645239 -0.018391227 0.042892236
0.021043012 -0.054291744 0.06385978 -0.028818376 -0.01573073 0.07617914 0.034088466 0.0034605307
0.014688191 0.060545873 0.0042943065 -0.016923975 0.054651394 -0.04248644 0.055446323 0.049963355
0.048262555 0.01605355 -0.04369747 0.0018717556 0.07293081 0.05041276 -0.0648497 -0.02114142
-0.05750806 -0.0009589715 0.043015685 0.049615517 0.113941595 -0.09536206 0.023482723 -0.009053365

fc1.weight f4 [84, 120]
00000000: 5a62 a73d 7d9d f23d 1478 8b3d a92a 08be
00000010: d303 93be c0bb fd3c 2db9 843d e0e1 6ebd
00000020: 0eb8 d7bc 8eae 8ebd 1ff3 293d a7a7 cfbc
00000030: 4876 b2bc 30d5 3fbc c258 8a3d e556 a83d
00000040: 3bb8 153e ae2f cc3d 7e52 7b3d 8a32 6bbd
00000050: 2d56 51bd d706 aa3d 3b50 e1bd 53de 9fbc
00000060: 1da6 c83d 9f0d 9c3d ebbe abbd 4e5a b9bd
00000070: f627 abbd 9534 ab3d 1060 6c3e b029 2c3e
00000080: 0aac 4dbe 56e7 0e3e e5be 9b3d 2caa 5ebd
00000090: c966 08bd ca47 a53d f76b f1bc 6ddc 80bc
000000a0: 1a97 39bd eead 9a3d 70ca 373d 0f6c 423e
000000b0: 86f1 44be c264 98bc 9d02 7dbd 018b 23be
000000c0: 6b9d 333e 969f 2bbc bd66 aebd 5b45 b0ba
000000d0: d2ca e03d 1748 16be 104d 193e 0e9e 433d
000000e0: 3ecb c5be 1bdc 87bd 006e 823d 00b0 0d3d
000000f0: badf 413d e6cb 8fbe 7ef3 5ebc 1176 823d
00000100: fe90 d43d be02 723d 16b6 a03c 16d2 0a3b
00000110: a689 003c 32c1 9d3d 87c8 94bd 601a 44bd
00000120: 2475 2fbe 6a9c 16be 64b7 7cbd 4144 1a3c
00000130: 1d3e 4bbe 5a3c 113d 8811 b73d 07ea 5cbe
00000140: 0790 393e d726 50bc 0eab ba3c c90f 52be
00000150: ffd9 78bd ae91 6fbd 2225 84bd f246 a5bd
00000160: 43fc 45bc dfc8 c2bd ceab acbd 1fb0 a5bd
00000170: 8c73 ba3d e622 21be 2bc7 db3c 09fa 32bd
00000180: eb12 febc eeae 033e 2882 273d de7c c93d
00000190: 90ad 0fbd 165b 6c3d 170e 9d3d 0c95 623d
000001a0: 0c93 753c 9c8b dfbd e431 78bd 57a3 59bc
000001b0: 8b56 d73d 83e3 23be a399 ec3d 400a 0d3d
000001c0: 6b1f e53d 98cf 763d 490f 953d ef0d a3bd
000001d0: 05ca 37be 8220 4fbd 05bc 6c3d e804 833d
000001e0: 2def 86bd 949a f03d 18a0 ef3d f6db 5fbe
000001f0: d644 4f3e d9f1 793d bc3a 0e3d 9823 29bd
00000200: fef1 c23c 3c15 f33d 51de aabd bd82 b7bb
00000210: 3939 8dbd 85ef 90bd c2f1 55be d8ad ffbb
00000220: 700b c23d 4466 8bbe d885 96bc bd66 563d
00000230: 1586 943d ad81 e2bd 7d83 393e e5ea 7cbd
00000240: 079f 0fbe e43c 583c 2258 933d ebcf de3b
00000250: 3220 0dbe 3950 fabc 5e23 c43d 84b2 703a
00000260: e707 02be 0120 e93c 2a42 b13c ce76 c13c
00000270: 4ec8 37bc 42b0 8bbd c0b6 8abc e8d5 02be
00000280: d5cf 353d efdf 30bc 5cee c43d 3bf9 f53b
00000290: 4286 bdbd 0cfb 7fbe c350 fdbc 1db4 85bc
000002a0: f408 27be b758 403d 1987 733e 57a5 183e
000002b0: 0b30 b93b f725 153e abbc ffbc e0b4 873d
000002c0: 20c6 32be fcf6 4fbd a141 c4bd c643 373c
000002d0: 6d50 173e 803d f23c f744 2dbe c426 003e
000002e0: 4fbe 56bc 0377 883e 5fdf 66bd b3f9 c3bc
000002f0: ed09 91bd 257a 5abd 45b7 01be c150 4c3e
00000300: 311e 41be d8aa 66be 16e0 963d 60ef f4bb
00000310: d2d9 b03c bc9d 7fbd d3f4 923e 05e6 2f3e
00000320: ef3a 82bd 68a3 353c 7a2a 393c d9af c7bc
00000330: ec03 8a3c 5c32 af3c 35ff f2bc 9398 86bd
00000340: e0c2 bd3d d802 98bd a340 cd3d 1615 443d
00000350: 31ca 1d3d 494a 223e 2180 503e 256f 3abc
00000360: 5f15 9c3d 8a93 29be ccf4 f53d d74e d03a
00000370: 7bb7 23be 686c ee3d eba1 a33d 427d 13be
00000380: 2fec b33c b1ee 983d 5948 91bd e5fa 4a3d
00000390: 5bfc b93d 8383 5bbe 2dcd df3c 419a 1fbd
000003a0: 015a 5a3d ee48 5c3d cbfc 1e3d a7db 2b3e
000003b0: caf6 b93d 34a0 a23d f439 7d3e 5c0e d7bd
000003c0: b80f d33d f61b 103e 28b0 f4bd c2eb 613e
000003d0: 2112 233e 6a86 713c 64eb 2fbd 6aab cb3c
000003e0: b7de 293e 1309 143e a62d 213d ffc7 ca3d
000003f0: 7dcd 7abd 0562 13bc 29f9 313e 1050 cf3d
0.08173056 0.11846445 0.068100125 -0.13297524 -0.28713855 0.030973315 0.06480632 -0.05832088
-0.026332881 -0.069668874 0.041491624 -0.025348498 -0.021784917 -0.011708543 0.067552105 0.08219699
0.1462106 0.09970032 0.061357968 -0.057421245 -0.051107574 0.08302086 -0.11001631 -0.019515192
0.097973086 0.076197855 -0.08386024 -0.090504274 -0.08357231 0.083596386 0.2308352 0.16812778
-0.20085159 0.13955435 0.076047696 -0.054361507 -0.03330115 0.08070333 -0.029470427 -0.015730107
-0.045310117 0.07552706 0.044870794 0.18986534 -0.19232759 -0.018602733 -0.06177007 -0.15970995
0.17540519 -0.01047506 -0.085156895 -0.0013448404 0.10976185 -0.14675938 0.14970803 0.047758155
-0.38631624 -0.06633779 0.06368637 0.034591675 0.047332503 -0.2808525 -0.013607858 0.06370176
0.103792176 0.059084646 0.019618075 0.002118235 0.007845318 0.07702865 -0.0726481 -0.047876716
-0.1713453 -0.14708105 -0.061698332 0.009415687 -0.19847913 0.035457946 0.08938891 -0.2157365
0.18121348 -0.012704573 0.022786643 -0.20513834 -0.060754772 -0.05848854 -0.06452395 -0.08070172
-0.01208407 -0.09510969 -0.08431207 -0.08090233 0.0910407 -0.15735969 0.02682837 -0.043695483
-0.03101488 0.12859699 0.04089561 0.0983827 -0.03507763 0.057704054 0.07668703 0.055317923
0.014988672 -0.109153 -0.060594454 -0.013283572 0.10514554 -0.16004758 0.115527414 0.034433603
0.11187633 0.06025657 0.07278306 -0.07961642 -0.17948158 -0.05056811 0.057796497 0.0639742
-0.06588588 0.117482334 0.11700457 -0.21861252 0.20241103 0.06102166 0.034723982 -0.04129371
0.023797031 0.118692845 -0.08343185 -0.005600302 -0.0689568 -0.07076935 -0.20893005 -0.007802706
0.09474838 -0.2722646 -0.018374369 0.052344073 0.072521366 -0.1105989 0.18116565 -0.06174745
-0.14025508 0.013198111 0.071945444 0.006799688 -0.13781813 -0.030555831 0.09577058 0.00091818743
-0.12698327 0.028457643 0.021637995 0.02361622 -0.01121719 -0.06820728 -0.016932845 -0.12776911
0.044387657 -0.010795577 0.09615776 0.007506517 -0.09254123 -0.2499811 -0.0309223 -0.016321236
-0.16312009 0.046959605 0.23782004 0.14906822 0.005651479 0.14565264 -0.031217894 0.06626296
-0.17458391 -0.050772652 -0.0958283 0.011185592 0.14776774 0.029570341 -0.16920839 0.12514788
-0.013106897 0.266533 -0.056365367 -0.023922777 -0.07081971 -0.053339142 -0.12667568 0.1995268
-0.18859173 -0.22526109 0.0736696 -0.007474825 0.02158824 -0.062406287 0.2870241 0.17177589
-0.06358897 0.011086322 0.011301631 -0.024375843 0.016847573 0.021386318 -0.029662708 -0.0657207
0.09265685 -0.074224174 0.10022094 0.04787167 0.038522903 0.1584865 0.20361377 -0.011379038
0.07621264 -0.16560188 0.12009582 0.0015892637 -0.15987961 0.116417706 0.07989868 -0.14403251
0.021963207 0.07467402 -0.07093877 0.049555678 0.09081336 -0.21436886 0.027319515 -0.038965467
0.05330849 0.05378049 0.0388153 0.1678301 0.090802744 0.079407126 0.24729139 -0.10500786
0.103057325 0.14073166 -0.11947662 0.2206259 0.15924884 0.0147415195 -0.042949095 0.02486201
0.16588865 0.14456587 0.039350174 0.099014275 -0.061231125 -0.008995538 0.17380203 0.101226926

fc1.bias f4 [84]
00000000: 2778 8b3d 4c7d f73c fb5c b73d 043a 033e
00000010: f05a 8b3b 32fc 82bd c3dc 6a3d a3af f13d
00000020: e09c 1ebd bda5 a73b d65a b13c f728 75bd
00000030: 10c5 d4bd 7013 9cbd c7a7 fc3d 88d0 0d3b
00000040: 2bb1 b03b 7cad bf3d b27e 423c 9ad0 173d
00000050: bd22 603d 55b9 ffbb d5ed 863d e679 15bd
00000060: 6517 03bb 7e81 38bd 8460 d5bc 42e7 bc3d
00000070: 7385 b5bb ffe3 46bd 1008 fb3d 9d04 99bc
00000080: fe50 1c3d 1ae7 283e bf7d e1bc 8202 143e
00000090: 5ea4 86bc d9d6 0cbd 6048 9dbc 4b40 0a3c
000000a0: 6d61 a5bc 0e32 89bd e1aa 9dbc 91a4 c7bd
000000b0: 3b5b e83d 2657 853c 15f6 6fbd 7445 6cbd
000000c0: bc1c 5dbd f0cc 59bd 4dd4 4fbd 04d8 db3c
000000d0: 6b0d 09be 75f0 773d ed4e 72ba 067d 95bd
000000e0: 4897 e13d 57fa f23c c9f5 2e3d 519c 8f3c
000000f0: b020 043e be97 c93d c3d9 743a 7f6a c238
00000100: 87ea 7abc fb40 13bd 8624 16bd c77e 163e
00000110: 0059 743c 2f72 88bc e09d 093e b6da 2fbc
00000120: 3c40 1ebd 0afb 3d3e 0760 d2bd d247 6d3d
00000130: ea3e fabc 346d 11bd 0f61 af3d 1d84 993c
00000140: 6381 91bd 21c1 ff3d ab45 a23d 2f18 953d
0.068100266 0.030211113 0.089532815 0.128151 0.004252784 -0.06395759 0.05733944 0.11801078
-0.038723826 0.005116193 0.02164976 -0.05985352 -0.10389149 -0.07620895 0.123366885 0.0021639187
0.005392214 0.093592614 0.011871027 0.037064172 0.05472063 -0.0078040757 0.065883316 -0.036493205
-0.0020002958 -0.04504537 -0.026046999 0.092237964 -0.00553959 -0.048557278 0.12257397 -0.018678958
0.038163178 0.16494408 -0.02752578 0.14454082 -0.016435798 -0.034384582 -0.01919955 0.00843818
-0.020188058 -0.06699 -0.01924652 -0.097481854 0.11345526 0.016276907 -0.05858429 -0.057683423
-0.05398248 -0.05317396 -0.050739575 0.026836403 -0.13384025 0.060532052 -0.0009243328 -0.07299237
0.11015183 0.029660387 0.042714868 0.017530592 0.12903094 0.09843396 0.00093403104 9.270477e-05
-0.015314705 -0.035950642 -0.036655925 0.14696799 0.014913797 -0.01665601 0.13439131 -0.010733297
-0.038635477 0.18552795 -0.10272222 0.05792982 -0.030547578 -0.035504535 0.08563434 0.018739754
-0.07104757 0.12488008 0.07923444 0.07280003

fc2.weight f4 [10, 84]
00000000: 47fa 85be 9277 3b3e ecce 63be ba17 9e3d
00000010: 4a04 b53d b067 ebbb b327 68be 827e c23d
00000020: e27c 59be 5ad2 373e 484b 81bd 2feb 6dbd
00000030: 5930 2c3d c5ed a43d 12f6 43be 58a4 2a3d
00000040: 3d47 183e 5182 8fbc a959 ef3d d31b a23d
00000050: 8fc7 60bd dd8c 883e 3235 1a3e 7d70 9b3d
00000060: d57d e4bd af33 0abe 6e9a 363e 9042 8dbd
00000070: 4164 f5bd 029b 02bd e1de 32be f1e5 003e
00000080: 19fd 6cbe 0982 4dbe f1b0 253d b437 4fbe
00000090: 41d7 bcbd e910 1bbe 2107 d93d 1aad dcbc
000000a0: a381 033d bc2f 003e 8d04 e03d ab14 6dbd
000000b0: fc8c 0abe 9bfa 69be 04ce 20bd 80a9 083e
000000c0: 838f 1c3d a030 2ebe ea37 88be b347 3dbe
000000d0: 9986 44bd da41 20bd c1d5 f03c 7cf2 033e
000000e0: 3089 843c f6fa ef3d 2291 0fbe 52e0 8a3d
000000f0: 3cc9 10be 1b35 efbd 43e6 64be f8d9 68be
00000100: 2749 63bd c231 24bd 8840 b63d d166 a4be
00000110: 60b6 0abe 5fae 6fbe 84e5 f63d cbb5 023e
00000120: 92c6 c5bd 0a7d 3dbd 11ed 20be 3f2c 033e
00000130: f93c e8bd 8b29 dfbd cdbf 9fbd 2fac c13d
00000140: 8c86 19be e10a f7bd 9731 573c d8ce aabc
00000150: 322f 8fbb 28e4 c83d 96db 283d a488 8bbe
00000160: a05a 80be 8864 b3bd bb57 043e e834 5fbe
00000170: dd37 cc3c 8e1b 893d e394 7fbe a96b 11be
00000180: 38df 803c e737 7f3d 4df5 9c3d cafa 8dbe
00000190: 922c 62bd bf1b d2bd 65da e0bd 9cdd 683e
000001a0: 6ba4 443e 1422 253e 9bdb 69bd 4c64 01bd
000001b0: dc34 3dbd 6a8c 63be 9bef 59be b29a ffbd
000001c0: bc3e a63d b576 66bd b2db 9a3d 1850 a6bc
000001d0: 8c28 20be 2cb0 153e 2997 4dbd 8047 8cbe
000001e0: 1e3e 87bd 2cac 8fbe efa8 fd3d fb60 0d3e
000001f0: 7604 dabd f983 02bd eb28 15be fa73 b83d
00000200: 4fd6 383e f2e5 2b3e 5c33 823d 803e 6dbe
00000210: 207f 7ebe 5c51 df3c dfbf bf3d 6d07 1cbe
00000220: 226d 32be a6b9 db3d c4c2 a1be 42f2 76be
00000230: 3c7a 913d 6169 74bd 8dda 5abe 6534 a43d
00000240: d4c9 003d 4097 763e 3b4b 61bd 6339 0a3d
00000250: 5990 8dbd 1485 c5bc f265 81bd db08 6c3d
00000260: 2487 a1be 9e6b 833d 7eca ae3d 9f82 283d
00000270: 64f5 5d3d 7dc3 3d3e a793 563c 5d06 5ebe
00000280: 072d 93be ab0d 633c a904 97bd 1a23 c5bb
00000290: caf1 6abe 764a 703d fda7 7dba 500b 43bc
000002a0: 40cf 0a3d 2c77 053e 7b2a e33a 8f04 68be
000002b0: 1de4 7bbd 2f66 7b3a 0f32 7fbd be57 9cbc
000002c0: e347 403e 617e 60be 1664 95bd 45b2 6a3c
000002d0: 9b7c b03d faf5 a0bd 2330 32be 9c13 87bd
000002e0: a246 6a3e 6493 3d3d c237 f13d 1aa7 e6bd
000002f0: 2c12 0e3d 11da 373e 19d1 423b d50d a23d
00000300: 64d9 5cbe 0c3d 45bd b2f5 2b3e 4ce2 093e
00000310: 5cbf 95bd 6a1d 5a3d 30b1 8c3d e842 adbe
00000320: a560 d4bd 684f f13d a00f f83d 5a69 123e
00000330: b084 0f3e 778a 23bc 9c1d 953d 3161 3e3e
00000340: c495 8c3d 4523 52be c08a f33c 4b21 babc
00000350: 6d8b 013e 925e dabe 13b4 e5bd d94f 193a
00000360: 7b9e db3d aac8 413d 06e8 293e 3b9e 973d
00000370: ca73 b6bd 4f83 63be 6905 0bbe c836 c33d
00000380: 013c 41bc 9d88 0bbe cf30 a03d aaf8 63be
00000390: 517b 80be 1fea 6e3e 547a 83bc 27d2 69be
000003a0: 80ce 683d b09e 8bbe bb34 383e 4810 173d
000003b0: 43ca 853d 4f0c 5fbe 4363 8ebe 3556 253c
000003c0: 0ea9 293e 379b afbd bfea 86be 4134 393e
000003d0: 8efa 643d 8507 b83d 571f 4c3e 342a cdbb
000003e0: 0498 d7bd 097e 46be adef 36bd da2e 77bd
000003f0: 7be5 1d3e 7d3d 113e f7a7 3dbe ab7c 0a3d
-0.2616751 0.18307331 -0.22246903 0.07719369 0.08838709 -0.0071839914 -0.22671394 0.09496786
-0.21239045 0.17951337 -0.06313187 -0.058085617 0.042038295 0.080531634 -0.19136837 0.041660637
0.14870925 -0.017518194 0.11687023 0.07915463 -0.054877814 0.2666997 0.15059355 0.07589815
-0.11156813 -0.13496278 0.17832348 -0.068974614 -0.119820125 -0.03188611 -0.17467834 0.12587716
-0.23143424 -0.20069136 0.040451948 -0.20236093 -0.09220744 -0.1514317 0.10597063 -0.02693801
0.032106053 0.12518209 0.10938368 -0.05788104 -0.13530344 -0.22849505 -0.03925897 0.13345909
0.0382228 -0.17010736 -0.2660516 -0.18484382 -0.047979925 -0.0391253 0.0293988 0.12885469
0.016178697 0.11717789 -0.14020208 0.06781067 -0.14139265 -0.11680051 -0.22353463 -0.22739398
-0.055489685 -0.040086515 0.08899027 -0.32109693 -0.13546133 -0.23406361 0.120554954 0.12764661
-0.09657015 -0.046261825 -0.15715434 0.12809847 -0.113397546 -0.108965956 -0.07800255 0.094566695
-0.14992732 -0.12062622 0.013134382 -0.020850584 -0.00436964 0.09809142 0.04122504 -0.27252686
-0.2506914 -0.08759409 0.12924092 -0.21797526 0.024928981 0.06694709 -0.2495914 -0.14201225
0.015731439 0.062309172 0.07663975 -0.277304 -0.055218287 -0.102591984 -0.109791555 0.22740787
0.19203345 0.16126281 -0.057094198 -0.03158979 -0.04619299 -0.22221532 -0.21282808 -0.12480678
0.081174344 -0.05626555 0.07561435 -0.020301864 -0.15640467 0.14617985 -0.050192986 -0.273983
-0.06603645 -0.28061044 0.12385737 0.13806526 -0.10645382 -0.03186414 -0.1456639 0.09006496
0.18050502 0.16786936 0.06357452 -0.23168373 -0.24853182 0.027260475 0.093627684 -0.15237208
-0.17424443 0.10728769 -0.31593907 -0.24115852 0.071033925 -0.05967081 -0.21372433 0.08017806
0.03144248 0.24081135 -0.055003386 0.033746134 -0.06912298 -0.024111308 -0.06318273 0.057625633
-0.31548417 0.06417011 0.08534716 0.041140195 0.0541891 0.18531604 0.0130967265 -0.21682115
-0.2874529 0.013858239 -0.07373936 -0.0060161473 -0.22943798 0.05866476 -0.0009676216 -0.011904553
0.033889055 0.13033742 0.0017331386 -0.22657989 -0.061496843 0.00095901167 -0.0623036 -0.019084807
0.18777423 -0.2192321 -0.072944805 0.014324729 0.086175166 -0.07859416 -0.17401175 -0.06595537
0.22878507 0.04628314 0.11778213 -0.11262341 0.0346853 0.1795428 0.0029726683 0.079127945
-0.21567303 -0.048153922 0.16792944 0.13465232 -0.073118895 0.053250708 0.06869733 -0.33840108
-0.10369996 0.11782724 0.12112355 0.14298001 0.1401546 -0.009981743 0.07281038 0.18591763
0.06864503 -0.20521267 0.029729247 -0.022720953 0.12650843 -0.42650276 -0.11215987 0.0005848385
0.10723587 0.04731051 0.16592416 0.07403227 -0.08908804 -0.22218059 -0.13576283 0.09531933
-0.011794091 -0.13626333 0.078218095 -0.22262827 -0.25094083 0.23331498 -0.016049542 -0.22834073
0.05683756 -0.27269506 0.17988865 0.03688076 0.06532719 -0.21782039 -0.27810106 0.010091354
0.16568395 -0.08574527 -0.26350972 0.1808634 0.05590301 0.08985809 0.1993383 -0.0062611345
-0.105270416 -0.19384016 -0.044662166 -0.060347416 0.15419571 0.14183612 -0.18521105 0.0338103

fc2.bias f4 [10]
00000000: 0134 c83d 742f 1b3e eb26 8a3b 63aa 983d
00000010: 0ce7 40bd dc56 303d 92ca d3bd 23bc ac3d
00000020: e2f3 c6bd 906f aabb
0.09775544 0.1515482 0.004216065 0.07454374 -0.047095343 0.043051586 -0.103413716 0.08434322
-0.09714486 -0.0052012876

42 f4 [6, 1, 5, 5]
00000000: 865e 033e da6d b13d 9a54 d8bb fd1d 6f3d
00000010: 7da1 bf3d 0ef4 143e 04bf 60bd 526a a83d
00000020: 995b 0fbd b1e1 a63c 7e9d d03c 5d53 8a3d
00000030: 895d 3f3e bdbe 673e defd 12bd 9c3f 7fbe
00000040: f3c8 a3bd 17bd 19be a4ec 4bbe b9d4 68be
00000050: c689 a0be 3adf efbd 18ff 95be 17ba ddbd
00000060: a167 1abe 172f 0a3e a3ce 143e ec1a 043e
00000070: 2b4f 5dbd 9509 f7bd c617 1b3e b278 f8bc
00000080: 5c89 5f3b 5e82 753c 8521 43be 1550 9b3d
00000090: a7f9 493e 3cf2 92bd b735 e3bd 9606 28bc
000000a0: 3607 8d3d 1e08 aabd b74c a73b 17dc 20be
000000b0: 8ced 2ebe 4788 cd3d b1fc f03c cd61 79bd
000000c0: ece5 d2bd d89c 21be 5311 89bd 88dc b8bd
000000d0: 9a8c e93d 363d 8bbe 3032 05be 0838 5fbd
000000e0: a4b8 82bc 25f5 e3bd 9676 bf3c 3b5e ad3d
000000f0: ce4f ad3d af9e 353e afe6 0d3e 8f66 a23d
00000100: 1f72 ae3e 65bb db3d c42d 363d 414b 3a3c
00000110: c03b 853d 691e 7e3d e8c5 ddba 4709 043e
00000120: 9692 1b3d bef5 123d 2e15 18be 714a a9bd
00000130: 76ab f73d cc15 c03d 021a f9bd cf0d 13bf
00000140: c9e7 163e 797a 1f3c 4802 9e3e d0d3 c03d
00000150: 3595 78be 0b95 5fbe 9122 783e 9b7a 9a3e
00000160: 27f7 103f 444b 33be fbbf aebe 666f 2c3e
00000170: 6ab4 0abb 3756 9f3e d14d f93d 1e3b adbd
00000180: e1d4 c6be 6cbb e0bd 9f96 26be 6d03 2f3e
00000190: 6d19 c8be f47b a9bd 121a d33d b6a8 443e
000001a0: 3ee4 ce3d bcf7 b43e c86c 1c3f ac15 7e3e
000001b0: 4796 4abe 58cd 2fbd 41ef 983e dc2d 05be
000001c0: 4d39 cabd 912e 9ebd 4971 b3bd 6525 43be
000001d0: 5a66 73be 563d 683d 2019 833e 5508 033b
000001e0: ef31 933d 96cf a1be 30d3 07be 7930 3ebe
000001f0: 3178 1d3e 2a54 8d3e 6cf5 33bd 6fa1 0fbe
00000200: 1ad2 b2bd 71ac 5b3d b504 3e3c 92db f9bd
00000210: 1b0f f5bd 9639 4abe 7550 213e ae2c 00be
00000220: 95c8 a1be 10f8 4fbe 9dd1 073e 6702 923e
00000230: 10b8 58be 2745 33be fdb5 d43d b487 653e
00000240: c6e6 3b3e 2df7 13be cfcf 01be 50de 653e
00000250: b3d5 33bd 3eb2 40bd
0.12829027 0.08663531 -0.006601882 0.05837821 0.09356973 0.14546224 -0.054869667 0.08223404
-0.034999464 0.02037129 0.025465723 0.067541815 0.18688025 0.22631355 -0.035886638 -0.24926609
-0.079973124 -0.15013538 -0.1991449 -0.22737397 -0.31355113 -0.11712499 -0.29296184 -0.108265094
-0.15078594 0.13494526 0.1453195 0.12900895 -0.05403058 -0.120623745 0.15145788 -0.03033099
0.0034108972 0.014984695 -0.19055755 0.07583634 0.19724141 -0.07175109 -0.1109423 -0.010255476
0.06886141 -0.083023295 0.0051055807 -0.15708958 -0.17082804 0.100357585 0.029417368 -0.060884286
-0.1029776 -0.15782487 -0.066927575 -0.09026438 0.11403771 -0.27195138 -0.13007426 -0.054496795
-0.015957184 -0.11130742 0.023371976 0.08465239 0.08462487 0.17736314 0.1385753 0.07929718
0.34071442 0.10729102 0.04447724 0.011370481 0.06505537 0.06204072 -0.0016919943 0.12894164
0.037981592 0.03587889 -0.1485183 -0.08266152 0.120932505 0.093791574 -0.12163164 -0.57442945
0.14736857 0.00973379 0.30861115 0.094154 -0.24275668 -0.21834199 0.24231936 0.30171666
0.56627125 -0.1750918 -0.34130844 0.1683937 -0.0021164664 0.31120464 0.121730454 -0.08458541
-0.3883429 -0.10973248 -0.16268395 0.1709115 -0.39081898 -0.08275595 0.10307707 0.19204983
0.101021275 0.35345256 0.61103487 0.24812955 -0.19783889 -0.04292044 0.29870036 -0.13005775
-0.098742105 -0.077237256 -0.08761842 -0.19057234 -0.23769513 0.05669912 0.25605106 0.001999398
0.071872585 -0.31603688 -0.13264155 -0.18573178 0.1537788 0.27603275 -0.043935224 -0.14026426
-0.0873148 0.05363125 0.011597802 -0.12200083 -0.11965772 -0.1974853 0.15753348 -0.12517044
-0.31598344 -0.20309472 0.13263555 0.28517458 -0.21163964 -0.17506848 0.10386274 0.22415048
0.18349752 -0.14449759 -0.12676929 0.22448087 -0.04390497 -0.047044985

43 f4 [6]
00000000: ba95 053e d6f9 10be 5c0a a0be acd6 bfbe
00000010: eba5 a3be 4ce8 0c3d
0.13045397 -0.14157805 -0.31257904 -0.3746847 -0.31962523 0.034401223

45 f4 [16, 6, 5, 5]
00000000: e9a2 d1bd 5246 0cbd a930 7a3b cc86 ccbc
00000010: ce93 42bb 305a 6abd 9ebd 2bbc 3b97 d73c
00000020: d848 79bd 5880 1fbb 6103 75bd 7b07 f4bc
00000030: 0e3c 21bc 12fb 0cbd 51c1 2ebd 780d 893d
00000040: 2804 a5bc ae5c 4dbd 5155 1bbc 1cf9 98bd
00000050: faed 923d 47b8 853b 6ca2 b0bd 00c1 d6bd
00000060: 1264 35bd f774 0b3e 79a0 b53d 09e6 053e
00000070: 014d f93d a768 c83d 260c 143e 628d e83d
00000080: 1b5b 693d d5e8 2d3d 756d 293d 27ef e63d
00000090: 3063 b03d ac34 2f3d a520 5e3d 5273 b83c
000000a0: f0b5 093e e453 b23d 9fc0 f43d 8514 c33d
000000b0: 3d81 ffbc d75c 063e 03e3 2a3d a252 753d
000000c0: d644 b5bc 9f22 883c 7609 ea3c f074 aebb
000000d0: 4f3a 13bc d793 3dbd a4e4 c73c 140c 2b3d
000000e0: 6fd7 3fbd 6205 e0bc 6f4a 9bbd 2fe6 753d
000000f0: 91e8 f1bc 84bc 39bd ebfa d6bc f0f9 f23c
00000100: af3a b33c a254 ecb9 ae5a 01bd 1351 05bd
00000110: d65f 01bc 8209 523b bd5a a0bc 346d 75bd
00000120: fdc4 bfbc 8459 033d 6f12 993d c9f4 eebc
00000130: 33fe 173c 7534 45bd 6c92 76bd 2e64 3dbe
00000140: 6176 56bb a83e e4bc 664a c3bc e64f 07be
00000150: 4b58 e4bd 2ace bcbc 44e1 80bd 2473 d2bd
00000160: 4d8b aebd ba3c 00be ae5f febd 5193 19be
00000170: 5993 b9bc 013e efbd 2225 34bd 0a1d d6bd
00000180: 5fba 2cbd 68c2 f3bd 2109 88bd 5dbb 0c3a
00000190: 5714 38bd 4334 17bd 1551 4dbd 4ef0 66bd
000001a0: 7742 a8bd a7b3 60bd 8f91 93bc 82f1 e1bc
000001b0: f30a 9cbd 2118 09bd 77ad 01bd c185 10bd
000001c0: c05d e7bc 47c3 a0bd be7e f7bc 49b8 903d
000001d0: 6994 63bd 780b 8fbb 321f 36bc e3fb 74bd
000001e0: 8180 9ebb c573 7cbd 8802 3ebd 1568 3fbd
000001f0: 82cd fabc e2da 003e 0a39 cb3d 5bf3 0a3e
00000200: 04e4 f93c 7226 d63b 26f8 003e 4298 a63d
00000210: 928f d83d 3d82 953d bfb2 c43d 6cdc 9e3d
00000220: fa65 bf3c 2ae2 a03d 30b1 913d 3e16 9c3d
00000230: d1a3 a23d 523e b03c 4a78 c93d 2eb3 b93d
00000240: ce26 a0bc 68dc b23b 24a2 fbbc 0953 563d
00000250: 1ee6 073d 0b20 85bd 2084 a23c cd96 cebd
00000260: 7468 3ebd 5a62 b93d b973 113c f08f 81bd
00000270: 571d f3bc f408 5f3e a3e3 103e 2e58 113d
00000280: b69e debd e109 dcbd f78b 22bd 5d29 a43c
00000290: 44fd cd3d c5de 00bd 3cfa b1bd 7d77 8cbd
000002a0: 9578 9c3d 224a 3e3d e427 45be c220 54be
000002b0: de3b 51be 81bc babc 8cc8 173e 84a6 a2bd
000002c0: 3c63 1fbc 18ff ee3d ed8f 4abc 5854 123c
000002d0: 36b0 b3bd 169a fe3d 46cb db3c 66ef 5cbc
000002e0: 2d80 f7bd 363e e03c 3838 813d dd78 063d
000002f0: eb57 fa38 c3ed 27bd c782 cd3d 1abf cb3d
00000300: 0926 6e3d ba32 99bb 95b2 f73d 627a f23d
00000310: 07f8 163d bb87 973d 1618 f53d 3449 203e
00000320: 23e2 91bd eea3 aebd 564c 523d cf59 5abd
00000330: 3367 8bbc 2da6 013d a09f 233e f22e 2f3e
00000340: ac61 a93c 61db 773c 680c e93d 8832 663e
00000350: 3455 553e 5d6e fa3d eb77 bd3d d0dc c23c
00000360: 6931 313d 1440 913d caac b83b 833c 4cb9
00000370: d375 65be 5f2f 01be c954 9abd 8844 d33a
00000380: 6382 cbbc 8111 113d 2f63 9bbd 0565 d6bc
00000390: 9963 18bd 282e ffbd eb34 81bd 122b 86bd
000003a0: 6b8f 06be 43cf 28bc cc4e ea3d 8a51 1d3c
000003b0: f366 cbbd e9b3 33be f6b5 cfbc e816 323e
000003c0: f414 81bb 3e5b ddbd 4e5c 44bd d464 e73d
000003d0: ac05 0a3e 90b4 a23d 3b6f 723d eff5 87ba
000003e0: 28cd 4f3e 1958 cf3d 53cd 4fbd e203 2ebe
000003f0: f5cd abbd 0cdf a9bd 1b9e 823d 33c8 fbbc
-0.10236151 -0.03424675 0.0038175976 -0.02496662 -0.002969015 -0.057214916 -0.01048222 0.02631723
-0.060860485 -0.0024337973 -0.059817676 -0.029788723 -0.009840978 -0.034419127 -0.04266483 0.06692022
-0.020143583 -0.050137214 -0.00948079 -0.07469389 0.07174297 0.0040808055 -0.086247295 -0.104860306
-0.044284888 0.13618837 0.08868498 0.13076033 0.121728905 0.09785586 0.1445776 0.11355092
0.05697165 0.042458374 0.041364152 0.112760834 0.086126685 0.04277484 0.05423035 0.022515927
0.1344831 0.08707407 0.11950802 0.09525398 -0.031189555 0.13121353 0.0417204 0.059893258
-0.02212755 0.016618071 0.028568964 -0.0053239986 -0.00898607 -0.04628357 0.024401017 0.041759565
-0.046836313 -0.027346317 -0.075825565 0.060033973 -0.029529842 -0.045345798 -0.026242694 0.029660195
0.021878568 -0.00045076484 -0.03158062 -0.03254802 -0.007896384 0.0032049124 -0.019574517 -0.059918597
-0.023409361 0.03206779 0.07474219 -0.029169457 0.009276914 -0.04814573 -0.060198233 -0.18495247
-0.0032724368 -0.027861908 -0.023839187 -0.13214073 -0.11149653 -0.023047525 -0.06292966 -0.102758676
-0.08522663 -0.12523165 -0.12420593 -0.14997603 -0.022653269 -0.11681748 -0.043980725 -0.104547575
-0.042169925 -0.119023144 -0.06642366 0.00053684955 -0.044941273 -0.036915075 -0.050126154 -0.056381516
-0.08215802 -0.05485883 -0.018013744 -0.02758098 -0.07619276 -0.033470277 -0.03165957 -0.035283808
-0.028242946 -0.07849746 -0.030211803 0.070663996 -0.055561457 -0.004365381 -0.011115836 -0.05981053
-0.004837096 -0.061633844 -0.046389133 -0.04673012 -0.030615572 0.12583497 0.09922989 0.13569395
0.030504234 0.0065353448 0.12594661 0.081345096 0.10574259 0.073002316 0.096044056 0.07756886
0.023364056 0.07855637 0.07113874 0.0762143 0.07941402 0.021514092 0.098373964 0.09067379
-0.019549754 0.0054584034 -0.030716963 0.052325282 0.03317844 -0.06500252 0.019838393 -0.10087357
-0.046486333 0.09051962 0.008877688 -0.06326282 -0.029677076 0.21780759 0.14149337 0.035484485
-0.108701155 -0.10744072 -0.039684262 0.020039255 0.10058072 -0.03146245 -0.086903065 -0.06858728
0.07640187 0.046457417 -0.19253498 -0.20715621 -0.20432994 -0.022794964 0.14822596 -0.079419166
-0.009728249 0.11669749 -0.012363416 0.008931242 -0.08773844 0.12431733 0.026830327 -0.013484811
-0.120849945 0.027373414 0.06309551 0.032830108 0.00011937305 -0.04099823 0.100347094 0.09948559
0.058141742 -0.0046752365 0.12094609 0.11839749 0.03685763 0.073989354 0.11967485 0.15652925
-0.0712321 -0.08527361 0.05134233 -0.053308304 -0.017016983 0.03165262 0.15978861 0.17107752
0.020676456 0.015127988 0.113793194 0.22480214 0.20833284 0.122280814 0.09251388 0.023786932
0.04326001 0.070923 0.0056358324 -0.00019477498 -0.22408228 -0.12615727 -0.07535703 0.0016118446
-0.024842447 0.035417084 -0.07587277 -0.026171217 -0.03720436 -0.124599755 -0.063089214 -0.06551184
-0.13140647 -0.010303321 0.114408106 0.00960196 -0.099317454 -0.17549099 -0.02535532 0.1739155
-0.0039392654 -0.10808419 -0.04793959 0.11298528 0.13478726 0.07944596 0.05918811 -0.0010372977
0.20293105 0.10124225 -0.05073292 -0.16993669 -0.083888926 -0.08294496 0.063778125 -0.03073511

46 f4 [16]
00000000: 80ce 9b3b f652 98bd 864a 383e 8627 0dbf
00000010: 503e 693c 3422 83be 4173 97be 499c 97bf
00000020: 930a 77be f0b8 43bf 1902 303e 809d f6be
00000030: eb0c 8a3e 8ebc ffbd 2ab3 243d 2897 093f
0.0047548413 -0.074376985 0.17997178 -0.5513843 0.014236048 -0.25612032 -0.2958012 -1.184457
-0.24125127 -0.7645407 0.171883 -0.48167038 0.2696298 -0.12487136 0.040209927 0.5374627
